…
        "id": "Zoh_5ZGgrPQi",
        "colab": {
          "base_uri": "https://localhost:8080/"
        },
        "outputId": "49efb92a-896d-4564-84ba-edf5257c84ca"
      },
      "outputs": [
        {
          "output_type": "stream",
          "name": "stdout",
          "text": [
            "Model: \"sequential_2\"\n",
            "_________________________________________________________________\n",
            " Layer (type)                Output Shape              Param #   \n",
            "=================================================================\n",
            " sequential_1 (Sequential)   (None, 180, 180, 3)       0         \n",
            "                                                                 \n",
            " rescaling_2 (Rescaling)     (None, 180, 180, 3)       0         \n",
            "                                                                 \n",
            " conv2d_4 (Conv2D)           (None, 180, 180, 16)      448       \n",
            "                                                                 \n",
            " max_pooling2d_4 (MaxPooling  (None, 90, 90, 16)       0         \n",
            " 2D)                                                             \n",
            "                                                                 \n",
            " conv2d_5 (Conv2D)           (None, 90, 90, 32)        4640      \n",
            "                                                                 \n",
            " max_pooling2d_5 (MaxPooling  (None, 45, 45, 32)       0         \n",
            " 2D)                                                             \n",
            "                                                                 \n",
            " conv2d_6 (Conv2D)           (None, 45, 45, 32)        9248      \n",
            "                                                                 \n",
            " max_pooling2d_6 (MaxPooling  (None, 22, 22, 32)       0         \n",
            " 2D)                                                             \n",
            "                                                                 \n",
            " conv2d_7 (Conv2D)           (None, 22, 22, 64)        18496     \n",
            "                                                                 \n",
            " max_pooling2d_7 (MaxPooling  (None, 11, 11, 64)       0         \n",
            " 2D)                                                             \n",
            "                                                                 \n",
            " dropout (Dropout)           (None, 11, 11, 64)        0         \n",
            "                                                                 \n",
            " flatten_1 (Flatten)         (None, 7744)              0         \n",
            "                                                                 \n",
            " dense_2 (Dense)             (None, 128)               991360    \n",
            "                                                                 \n",
            " outputs (Dense)             (None, 4)                 516       \n",
            "                                                                 \n",
            "=================================================================\n",
            "Total params: 1,024,708\n",
            "Trainable params: 1,024,708\n",
            "Non-trainable params: 0\n",
            "_________________________________________________________________\n"
          ]
        }
…
